#loc = loc("/root/miniconda3/lib/python3.12/site-packages/vllm/attention/ops/prefix_prefill.py":22:0)
#loc1 = loc(unknown)
#loc74 = loc("/root/miniconda3/lib/python3.12/site-packages/vllm/attention/ops/prefix_prefill.py":170:26)
#loc80 = loc("/root/miniconda3/lib/python3.12/site-packages/vllm/attention/ops/prefix_prefill.py":172:25)
#loc131 = loc("/root/miniconda3/lib/python3.12/site-packages/vllm/attention/ops/prefix_prefill.py":234:26)
#loc135 = loc("/root/miniconda3/lib/python3.12/site-packages/vllm/attention/ops/prefix_prefill.py":236:25)
#loc168 = loc(callsite(#loc1 at #loc74))
#loc171 = loc(callsite(#loc1 at #loc80))
#loc174 = loc(callsite(#loc1 at #loc131))
#loc176 = loc(callsite(#loc1 at #loc135))
module {
  tt.func public @_fwd_kernel(%arg0: !tt.ptr<bf16> {tt.divisibility = 16 : i32} loc("/root/miniconda3/lib/python3.12/site-packages/vllm/attention/ops/prefix_prefill.py":22:0), %arg1: !tt.ptr<bf16> {tt.divisibility = 16 : i32} loc("/root/miniconda3/lib/python3.12/site-packages/vllm/attention/ops/prefix_prefill.py":22:0), %arg2: !tt.ptr<bf16> {tt.divisibility = 16 : i32} loc("/root/miniconda3/lib/python3.12/site-packages/vllm/attention/ops/prefix_prefill.py":22:0), %arg3: !tt.ptr<bf16> {tt.divisibility = 16 : i32} loc("/root/miniconda3/lib/python3.12/site-packages/vllm/attention/ops/prefix_prefill.py":22:0), %arg4: !tt.ptr<bf16> {tt.divisibility = 16 : i32} loc("/root/miniconda3/lib/python3.12/site-packages/vllm/attention/ops/prefix_prefill.py":22:0), %arg5: !tt.ptr<i32> {tt.divisibility = 16 : i32} loc("/root/miniconda3/lib/python3.12/site-packages/vllm/attention/ops/prefix_prefill.py":22:0), %arg6: f32 loc("/root/miniconda3/lib/python3.12/site-packages/vllm/attention/ops/prefix_prefill.py":22:0), %arg7: !tt.ptr<f32> {tt.divisibility = 16 : i32} loc("/root/miniconda3/lib/python3.12/site-packages/vllm/attention/ops/prefix_prefill.py":22:0), %arg8: !tt.ptr<f32> {tt.divisibility = 16 : i32} loc("/root/miniconda3/lib/python3.12/site-packages/vllm/attention/ops/prefix_prefill.py":22:0), %arg9: !tt.ptr<i32> {tt.divisibility = 16 : i32} loc("/root/miniconda3/lib/python3.12/site-packages/vllm/attention/ops/prefix_prefill.py":22:0), %arg10: !tt.ptr<i32> {tt.divisibility = 16 : i32} loc("/root/miniconda3/lib/python3.12/site-packages/vllm/attention/ops/prefix_prefill.py":22:0), %arg11: i32 {tt.divisibility = 16 : i32} loc("/root/miniconda3/lib/python3.12/site-packages/vllm/attention/ops/prefix_prefill.py":22:0), %arg12: i32 loc("/root/miniconda3/lib/python3.12/site-packages/vllm/attention/ops/prefix_prefill.py":22:0), %arg13: !tt.ptr<bf16> {tt.divisibility = 16 : i32} loc("/root/miniconda3/lib/python3.12/site-packages/vllm/attention/ops/prefix_prefill.py":22:0), %arg14: i32 {tt.divisibility = 16 : i32} loc("/root/miniconda3/lib/python3.12/site-packages/vllm/attention/ops/prefix_prefill.py":22:0), %arg15: i32 {tt.divisibility = 16 : i32} loc("/root/miniconda3/lib/python3.12/site-packages/vllm/attention/ops/prefix_prefill.py":22:0), %arg16: i32 {tt.divisibility = 16 : i32} loc("/root/miniconda3/lib/python3.12/site-packages/vllm/attention/ops/prefix_prefill.py":22:0), %arg17: i32 {tt.divisibility = 16 : i32} loc("/root/miniconda3/lib/python3.12/site-packages/vllm/attention/ops/prefix_prefill.py":22:0), %arg18: i32 {tt.divisibility = 16 : i32} loc("/root/miniconda3/lib/python3.12/site-packages/vllm/attention/ops/prefix_prefill.py":22:0), %arg19: i32 {tt.divisibility = 16 : i32} loc("/root/miniconda3/lib/python3.12/site-packages/vllm/attention/ops/prefix_prefill.py":22:0), %arg20: i32 {tt.divisibility = 16 : i32} loc("/root/miniconda3/lib/python3.12/site-packages/vllm/attention/ops/prefix_prefill.py":22:0), %arg21: i32 {tt.divisibility = 16 : i32} loc("/root/miniconda3/lib/python3.12/site-packages/vllm/attention/ops/prefix_prefill.py":22:0), %arg22: i32 {tt.divisibility = 16 : i32} loc("/root/miniconda3/lib/python3.12/site-packages/vllm/attention/ops/prefix_prefill.py":22:0), %arg23: i32 {tt.divisibility = 16 : i32} loc("/root/miniconda3/lib/python3.12/site-packages/vllm/attention/ops/prefix_prefill.py":22:0), %arg24: i32 {tt.divisibility = 16 : i32} loc("/root/miniconda3/lib/python3.12/site-packages/vllm/attention/ops/prefix_prefill.py":22:0), %arg25: i32 {tt.divisibility = 16 : i32} loc("/root/miniconda3/lib/python3.12/site-packages/vllm/attention/ops/prefix_prefill.py":22:0), %arg26: i32 loc("/root/miniconda3/lib/python3.12/site-packages/vllm/attention/ops/prefix_prefill.py":22:0), %arg27: i32 {tt.divisibility = 16 : i32} loc("/root/miniconda3/lib/python3.12/site-packages/vllm/attention/ops/prefix_prefill.py":22:0), %arg28: i32 {tt.divisibility = 16 : i32} loc("/root/miniconda3/lib/python3.12/site-packages/vllm/attention/ops/prefix_prefill.py":22:0), %arg29: i32 {tt.divisibility = 16 : i32} loc("/root/miniconda3/lib/python3.12/site-packages/vllm/attention/ops/prefix_prefill.py":22:0), %arg30: i32 loc("/root/miniconda3/lib/python3.12/site-packages/vllm/attention/ops/prefix_prefill.py":22:0)) attributes {noinline = false} {
    %cst = arith.constant dense<0xFF800000> : tensor<128xf32> loc(#loc1)
    %cst_0 = arith.constant dense<0.000000e+00> : tensor<128x128xf32> loc(#loc1)
    %cst_1 = arith.constant dense<0.000000e+00> : tensor<128xf32> loc(#loc1)
    %c0_i32 = arith.constant 0 : i32 loc(#loc1)
    %cst_2 = arith.constant dense<0.000000e+00> : tensor<128x128xbf16> loc(#loc1)
    %cst_3 = arith.constant dense<0xFF800000> : tensor<128x128xf32> loc(#loc1)
    %cst_4 = arith.constant dense<0> : tensor<128xi32> loc(#loc1)
    %cst_5 = arith.constant dense<1> : tensor<128xi32> loc(#loc1)
    %cst_6 = arith.constant dense<128> : tensor<128xi32> loc(#loc1)
    %c128_i32 = arith.constant 128 : i32 loc(#loc1)
    %c1_i32 = arith.constant 1 : i32 loc(#loc1)
    %0 = tt.get_program_id x : i32 loc(#loc2)
    %1 = tt.get_program_id y : i32 loc(#loc3)
    %2 = tt.get_program_id z : i32 loc(#loc4)
    %3 = arith.divsi %1, %arg30 : i32 loc(#loc5)
    %4 = tt.addptr %arg10, %0 : !tt.ptr<i32>, i32 loc(#loc6)
    %5 = tt.load %4 : !tt.ptr<i32> loc(#loc7)
    %6 = tt.addptr %arg9, %0 : !tt.ptr<i32>, i32 loc(#loc8)
    %7 = tt.load %6 : !tt.ptr<i32> loc(#loc9)
    %8 = tt.addptr %6, %c1_i32 : !tt.ptr<i32>, i32 loc(#loc10)
    %9 = tt.load %8 : !tt.ptr<i32> loc(#loc11)
    %10 = arith.subi %9, %7 : i32 loc(#loc12)
    %11 = arith.subi %5, %10 : i32 loc(#loc13)
    %12 = arith.muli %2, %c128_i32 : i32 loc(#loc14)
    %13 = tt.make_range {end = 128 : i32, start = 0 : i32} : tensor<128xi32> loc(#loc15)
    %14 = tt.splat %12 : i32 -> tensor<128xi32> loc(#loc16)
    %15 = arith.addi %14, %13 : tensor<128xi32> loc(#loc16)
    %16 = tt.expand_dims %15 {axis = 1 : i32} : tensor<128xi32> -> tensor<128x1xi32> loc(#loc17)
    %17 = tt.splat %7 : i32 -> tensor<128x1xi32> loc(#loc18)
    %18 = arith.addi %17, %16 : tensor<128x1xi32> loc(#loc18)
    %19 = tt.splat %arg15 : i32 -> tensor<128x1xi32> loc(#loc19)
    %20 = arith.muli %18, %19 : tensor<128x1xi32> loc(#loc19)
    %21 = arith.muli %1, %arg16 : i32 loc(#loc20)
    %22 = tt.splat %21 : i32 -> tensor<128x1xi32> loc(#loc21)
    %23 = arith.addi %20, %22 : tensor<128x1xi32> loc(#loc21)
    %24 = tt.expand_dims %13 {axis = 0 : i32} : tensor<128xi32> -> tensor<1x128xi32> loc(#loc22)
    %25 = tt.broadcast %23 : tensor<128x1xi32> -> tensor<128x128xi32> loc(#loc23)
    %26 = tt.broadcast %24 : tensor<1x128xi32> -> tensor<128x128xi32> loc(#loc23)
    %27 = arith.addi %25, %26 : tensor<128x128xi32> loc(#loc23)
    %28 = arith.cmpi slt, %13, %cst_6 : tensor<128xi32> loc(#loc24)
    %29 = arith.select %28, %cst_5, %cst_4 : tensor<128xi1>, tensor<128xi32> loc(#loc25)
    %30 = arith.cmpi ne, %29, %cst_4 : tensor<128xi32> loc(#loc26)
    %31 = tt.expand_dims %30 {axis = 0 : i32} : tensor<128xi1> -> tensor<1x128xi1> loc(#loc27)
    %32 = tt.splat %10 : i32 -> tensor<128x1xi32> loc(#loc28)
    %33 = arith.cmpi slt, %16, %32 : tensor<128x1xi32> loc(#loc28)
    %34 = tt.broadcast %31 : tensor<1x128xi1> -> tensor<128x128xi1> loc(#loc29)
    %35 = tt.broadcast %33 : tensor<128x1xi1> -> tensor<128x128xi1> loc(#loc29)
    %36 = arith.andi %34, %35 : tensor<128x128xi1> loc(#loc29)
    %37 = tt.splat %arg0 : !tt.ptr<bf16> -> tensor<128x128x!tt.ptr<bf16>> loc(#loc30)
    %38 = tt.addptr %37, %27 : tensor<128x128x!tt.ptr<bf16>>, tensor<128x128xi32> loc(#loc30)
    %39 = tt.load %38, %36, %cst_2 : tensor<128x128x!tt.ptr<bf16>> loc(#loc31)
    %40 = tt.splat %11 : i32 -> tensor<128xi32> loc(#loc32)
    %41 = arith.muli %0, %arg14 : i32 loc(#loc33)
    %42 = tt.addptr %arg5, %41 : !tt.ptr<i32>, i32 loc(#loc34)
    %43 = tt.splat %arg11 : i32 -> tensor<128xi32> loc(#loc35)
    %44 = tt.splat %42 : !tt.ptr<i32> -> tensor<128x!tt.ptr<i32>> loc(#loc36)
    %45 = tt.splat %arg23 : i32 -> tensor<1x128xi32> loc(#loc37)
    %46 = arith.muli %3, %arg24 : i32 loc(#loc38)
    %47 = tt.splat %46 : i32 -> tensor<1x128xi32> loc(#loc39)
    %48 = tt.expand_dims %13 {axis = 1 : i32} : tensor<128xi32> -> tensor<128x1xi32> loc(#loc40)
    %49 = tt.splat %arg12 : i32 -> tensor<128x1xi32> loc(#loc41)
    %50 = tt.splat %arg25 : i32 -> tensor<128x1xi32> loc(#loc42)
    %51 = tt.splat %arg11 : i32 -> tensor<1x128xi32> loc(#loc43)
    %52 = tt.splat %arg26 : i32 -> tensor<1x128xi32> loc(#loc44)
    %53 = arith.remsi %48, %49 : tensor<128x1xi32> loc(#loc45)
    %54 = tt.broadcast %53 : tensor<128x1xi32> -> tensor<128x128xi32> loc(#loc46)
    %55 = tt.splat %arg27 : i32 -> tensor<128x1xi32> loc(#loc47)
    %56 = arith.muli %3, %arg28 : i32 loc(#loc48)
    %57 = tt.splat %56 : i32 -> tensor<128x1xi32> loc(#loc49)
    %58 = tt.splat %arg29 : i32 -> tensor<1x128xi32> loc(#loc50)
    %59 = arith.muli %24, %58 : tensor<1x128xi32> loc(#loc50)
    %60 = tt.broadcast %59 : tensor<1x128xi32> -> tensor<128x128xi32> loc(#loc51)
    %61 = tt.splat %arg11 : i32 -> tensor<128x1xi32> loc(#loc52)
    %62 = tt.expand_dims %30 {axis = 1 : i32} : tensor<128xi1> -> tensor<128x1xi1> loc(#loc53)
    %63 = tt.splat %11 : i32 -> tensor<1x128xi32> loc(#loc54)
    %64 = tt.broadcast %62 : tensor<128x1xi1> -> tensor<128x128xi1> loc(#loc55)
    %65 = tt.splat %arg3 : !tt.ptr<bf16> -> tensor<128x128x!tt.ptr<bf16>> loc(#loc56)
    %66 = tt.splat %arg6 : f32 -> tensor<128x128xf32> loc(#loc57)
    %67 = tt.splat %11 : i32 -> tensor<128x1xi32> loc(#loc58)
    %68 = tt.splat %arg4 : !tt.ptr<bf16> -> tensor<128x128x!tt.ptr<bf16>> loc(#loc59)
    %69:3 = scf.for %arg31 = %c0_i32 to %11 step %c128_i32 iter_args(%arg32 = %cst_0, %arg33 = %cst_1, %arg34 = %cst) -> (tensor<128x128xf32>, tensor<128xf32>, tensor<128xf32>)  : i32 {
      %111 = tt.splat %arg31 : i32 -> tensor<128xi32> loc(#loc61)
      %112 = arith.addi %111, %13 : tensor<128xi32> loc(#loc61)
      %113 = arith.cmpi slt, %112, %40 : tensor<128xi32> loc(#loc32)
      %114 = arith.divsi %112, %43 : tensor<128xi32> loc(#loc35)
      %115 = tt.addptr %44, %114 : tensor<128x!tt.ptr<i32>>, tensor<128xi32> loc(#loc36)
      %116 = tt.load %115, %113, %cst_4 : tensor<128x!tt.ptr<i32>> loc(#loc62)
      %117 = tt.expand_dims %116 {axis = 0 : i32} : tensor<128xi32> -> tensor<1x128xi32> loc(#loc63)
      %118 = arith.muli %117, %45 : tensor<1x128xi32> loc(#loc37)
      %119 = arith.addi %118, %47 : tensor<1x128xi32> loc(#loc39)
      %120 = arith.divsi %48, %49 : tensor<128x1xi32> loc(#loc41)
      %121 = arith.muli %120, %50 : tensor<128x1xi32> loc(#loc42)
      %122 = tt.broadcast %119 : tensor<1x128xi32> -> tensor<128x128xi32> loc(#loc64)
      %123 = tt.broadcast %121 : tensor<128x1xi32> -> tensor<128x128xi32> loc(#loc64)
      %124 = arith.addi %122, %123 : tensor<128x128xi32> loc(#loc64)
      %125 = tt.splat %arg31 : i32 -> tensor<1x128xi32> loc(#loc65)
      %126 = arith.addi %125, %24 : tensor<1x128xi32> loc(#loc65)
      %127 = arith.remsi %126, %51 : tensor<1x128xi32> loc(#loc43)
      %128 = arith.muli %127, %52 : tensor<1x128xi32> loc(#loc44)
      %129 = tt.broadcast %128 : tensor<1x128xi32> -> tensor<128x128xi32> loc(#loc66)
      %130 = arith.addi %124, %129 : tensor<128x128xi32> loc(#loc66)
      %131 = arith.addi %130, %54 : tensor<128x128xi32> loc(#loc46)
      %132 = tt.expand_dims %116 {axis = 1 : i32} : tensor<128xi32> -> tensor<128x1xi32> loc(#loc67)
      %133 = arith.muli %132, %55 : tensor<128x1xi32> loc(#loc47)
      %134 = arith.addi %133, %57 : tensor<128x1xi32> loc(#loc49)
      %135 = tt.broadcast %134 : tensor<128x1xi32> -> tensor<128x128xi32> loc(#loc51)
      %136 = arith.addi %135, %60 : tensor<128x128xi32> loc(#loc51)
      %137 = tt.splat %arg31 : i32 -> tensor<128x1xi32> loc(#loc68)
      %138 = arith.addi %137, %48 : tensor<128x1xi32> loc(#loc68)
      %139 = arith.remsi %138, %61 : tensor<128x1xi32> loc(#loc52)
      %140 = tt.broadcast %139 : tensor<128x1xi32> -> tensor<128x128xi32> loc(#loc69)
      %141 = arith.addi %136, %140 : tensor<128x128xi32> loc(#loc69)
      %142 = arith.cmpi slt, %126, %63 : tensor<1x128xi32> loc(#loc54)
      %143 = tt.broadcast %142 : tensor<1x128xi1> -> tensor<128x128xi1> loc(#loc55)
      %144 = arith.andi %64, %143 : tensor<128x128xi1> loc(#loc55)
      %145 = tt.addptr %65, %131 : tensor<128x128x!tt.ptr<bf16>>, tensor<128x128xi32> loc(#loc56)
      %146 = tt.load %145, %144, %cst_2 : tensor<128x128x!tt.ptr<bf16>> loc(#loc70)
      %147 = tt.dot %39, %146, %cst_0, inputPrecision = tf32 : tensor<128x128xbf16> * tensor<128x128xbf16> -> tensor<128x128xf32> loc(#loc71)
      %148 = arith.select %143, %147, %cst_3 : tensor<128x128xi1>, tensor<128x128xf32> loc(#loc72)
      %149 = arith.mulf %148, %66 : tensor<128x128xf32> loc(#loc57)
      %150 = "tt.reduce"(%149) <{axis = 1 : i32}> ({
      ^bb0(%arg35: f32 loc(callsite(#loc1 at #loc74)), %arg36: f32 loc(callsite(#loc1 at #loc74))):
        %180 = arith.maxnumf %arg35, %arg36 : f32 loc(#loc177)
        tt.reduce.return %180 : f32 loc(#loc167)
      }) : (tensor<128x128xf32>) -> tensor<128xf32> loc(#loc167)
      %151 = tt.expand_dims %150 {axis = 1 : i32} : tensor<128xf32> -> tensor<128x1xf32> loc(#loc76)
      %152 = tt.broadcast %151 : tensor<128x1xf32> -> tensor<128x128xf32> loc(#loc77)
      %153 = arith.subf %149, %152 : tensor<128x128xf32> loc(#loc77)
      %154 = math.exp %153 : tensor<128x128xf32> loc(#loc78)
      %155 = "tt.reduce"(%154) <{axis = 1 : i32}> ({
      ^bb0(%arg35: f32 loc(callsite(#loc1 at #loc80)), %arg36: f32 loc(callsite(#loc1 at #loc80))):
        %180 = arith.addf %arg35, %arg36 : f32 loc(#loc178)
        tt.reduce.return %180 : f32 loc(#loc170)
      }) : (tensor<128x128xf32>) -> tensor<128xf32> loc(#loc170)
      %156 = arith.maxnumf %arg34, %150 : tensor<128xf32> loc(#loc82)
      %157 = arith.subf %arg34, %156 : tensor<128xf32> loc(#loc83)
      %158 = math.exp %157 : tensor<128xf32> loc(#loc84)
      %159 = arith.subf %150, %156 : tensor<128xf32> loc(#loc85)
      %160 = math.exp %159 : tensor<128xf32> loc(#loc86)
      %161 = arith.mulf %158, %arg33 : tensor<128xf32> loc(#loc87)
      %162 = arith.mulf %160, %155 : tensor<128xf32> loc(#loc88)
      %163 = arith.addf %161, %162 : tensor<128xf32> loc(#loc89)
      %164 = arith.divf %160, %163 : tensor<128xf32> loc(#loc90)
      %165 = tt.expand_dims %164 {axis = 1 : i32} : tensor<128xf32> -> tensor<128x1xf32> loc(#loc91)
      %166 = tt.broadcast %165 : tensor<128x1xf32> -> tensor<128x128xf32> loc(#loc92)
      %167 = arith.mulf %154, %166 : tensor<128x128xf32> loc(#loc92)
      %168 = arith.divf %arg33, %163 : tensor<128xf32> loc(#loc93)
      %169 = arith.mulf %168, %158 : tensor<128xf32> loc(#loc94)
      %170 = tt.expand_dims %169 {axis = 1 : i32} : tensor<128xf32> -> tensor<128x1xf32> loc(#loc95)
      %171 = tt.broadcast %170 : tensor<128x1xf32> -> tensor<128x128xf32> loc(#loc96)
      %172 = arith.mulf %arg32, %171 : tensor<128x128xf32> loc(#loc96)
      %173 = arith.cmpi slt, %138, %67 : tensor<128x1xi32> loc(#loc58)
      %174 = tt.broadcast %173 : tensor<128x1xi1> -> tensor<128x128xi1> loc(#loc97)
      %175 = arith.andi %34, %174 : tensor<128x128xi1> loc(#loc97)
      %176 = tt.addptr %68, %141 : tensor<128x128x!tt.ptr<bf16>>, tensor<128x128xi32> loc(#loc59)
      %177 = tt.load %176, %175, %cst_2 : tensor<128x128x!tt.ptr<bf16>> loc(#loc98)
      %178 = arith.truncf %167 : tensor<128x128xf32> to tensor<128x128xbf16> loc(#loc99)
      %179 = tt.dot %178, %177, %172, inputPrecision = tf32 : tensor<128x128xbf16> * tensor<128x128xbf16> -> tensor<128x128xf32> loc(#loc100)
      scf.yield %179, %163, %156 : tensor<128x128xf32>, tensor<128xf32>, tensor<128xf32> loc(#loc101)
    } {tt.divisibility_arg1 = dense<128> : tensor<1xi32>} loc(#loc60)
    %70 = tt.splat %arg17 : i32 -> tensor<1x128xi32> loc(#loc102)
    %71 = arith.muli %24, %70 : tensor<1x128xi32> loc(#loc102)
    %72 = arith.muli %3, %arg18 : i32 loc(#loc103)
    %73 = tt.splat %72 : i32 -> tensor<1x128xi32> loc(#loc104)
    %74 = arith.addi %71, %73 : tensor<1x128xi32> loc(#loc104)
    %75 = tt.expand_dims %13 {axis = 1 : i32} : tensor<128xi32> -> tensor<128x1xi32> loc(#loc105)
    %76 = tt.broadcast %74 : tensor<1x128xi32> -> tensor<128x128xi32> loc(#loc106)
    %77 = tt.broadcast %75 : tensor<128x1xi32> -> tensor<128x128xi32> loc(#loc106)
    %78 = arith.addi %76, %77 : tensor<128x128xi32> loc(#loc106)
    %79 = tt.splat %arg19 : i32 -> tensor<128x1xi32> loc(#loc107)
    %80 = arith.muli %75, %79 : tensor<128x1xi32> loc(#loc107)
    %81 = arith.muli %3, %arg20 : i32 loc(#loc108)
    %82 = tt.splat %81 : i32 -> tensor<128x1xi32> loc(#loc109)
    %83 = arith.addi %80, %82 : tensor<128x1xi32> loc(#loc109)
    %84 = tt.broadcast %83 : tensor<128x1xi32> -> tensor<128x128xi32> loc(#loc110)
    %85 = arith.addi %84, %26 : tensor<128x128xi32> loc(#loc110)
    %86 = tt.splat %arg1 : !tt.ptr<bf16> -> tensor<128x128x!tt.ptr<bf16>> loc(#loc111)
    %87 = tt.addptr %86, %78 : tensor<128x128x!tt.ptr<bf16>>, tensor<128x128xi32> loc(#loc111)
    %88 = tt.splat %arg2 : !tt.ptr<bf16> -> tensor<128x128x!tt.ptr<bf16>> loc(#loc112)
    %89 = tt.addptr %88, %85 : tensor<128x128x!tt.ptr<bf16>>, tensor<128x128xi32> loc(#loc112)
    %90 = arith.cmpi slt, %12, %10 : i32 loc(#loc113)
    %91 = arith.extui %90 : i1 to i32 loc(#loc114)
    %92 = arith.addi %2, %c1_i32 : i32 loc(#loc115)
    %93 = arith.muli %91, %92 : i32 loc(#loc116)
    %94 = arith.muli %93, %c128_i32 : i32 loc(#loc117)
    %95 = tt.expand_dims %30 {axis = 1 : i32} : tensor<128xi1> -> tensor<128x1xi1> loc(#loc118)
    %96 = tt.splat %10 : i32 -> tensor<1x128xi32> loc(#loc119)
    %97 = tt.broadcast %95 : tensor<128x1xi1> -> tensor<128x128xi1> loc(#loc120)
    %98 = tt.splat %arg6 : f32 -> tensor<128x128xf32> loc(#loc121)
    %99 = tt.broadcast %16 : tensor<128x1xi32> -> tensor<128x128xi32> loc(#loc122)
    %100:3 = scf.for %arg31 = %c0_i32 to %94 step %c128_i32 iter_args(%arg32 = %69#0, %arg33 = %69#1, %arg34 = %69#2) -> (tensor<128x128xf32>, tensor<128xf32>, tensor<128xf32>)  : i32 {
      %111 = tt.splat %arg31 : i32 -> tensor<1x128xi32> loc(#loc124)
      %112 = arith.addi %111, %24 : tensor<1x128xi32> loc(#loc124)
      %113 = arith.cmpi slt, %112, %96 : tensor<1x128xi32> loc(#loc119)
      %114 = tt.broadcast %113 : tensor<1x128xi1> -> tensor<128x128xi1> loc(#loc120)
      %115 = arith.andi %97, %114 : tensor<128x128xi1> loc(#loc120)
      %116 = arith.addi %7, %arg31 : i32 loc(#loc125)
      %117 = arith.muli %116, %arg17 : i32 loc(#loc126)
      %118 = tt.splat %117 : i32 -> tensor<128x128xi32> loc(#loc127)
      %119 = tt.addptr %87, %118 : tensor<128x128x!tt.ptr<bf16>>, tensor<128x128xi32> loc(#loc127)
      %120 = tt.load %119, %115, %cst_2 : tensor<128x128x!tt.ptr<bf16>> loc(#loc128)
      %121 = tt.dot %39, %120, %cst_0, inputPrecision = tf32 : tensor<128x128xbf16> * tensor<128x128xbf16> -> tensor<128x128xf32> loc(#loc129)
      %122 = arith.mulf %121, %98 : tensor<128x128xf32> loc(#loc121)
      %123 = tt.broadcast %112 : tensor<1x128xi32> -> tensor<128x128xi32> loc(#loc122)
      %124 = arith.cmpi sge, %99, %123 : tensor<128x128xi32> loc(#loc122)
      %125 = arith.select %124, %122, %cst_3 : tensor<128x128xi1>, tensor<128x128xf32> loc(#loc130)
      %126 = "tt.reduce"(%125) <{axis = 1 : i32}> ({
      ^bb0(%arg35: f32 loc(callsite(#loc1 at #loc131)), %arg36: f32 loc(callsite(#loc1 at #loc131))):
        %160 = arith.maxnumf %arg35, %arg36 : f32 loc(#loc179)
        tt.reduce.return %160 : f32 loc(#loc173)
      }) : (tensor<128x128xf32>) -> tensor<128xf32> loc(#loc173)
      %127 = tt.expand_dims %126 {axis = 1 : i32} : tensor<128xf32> -> tensor<128x1xf32> loc(#loc132)
      %128 = tt.broadcast %127 : tensor<128x1xf32> -> tensor<128x128xf32> loc(#loc133)
      %129 = arith.subf %125, %128 : tensor<128x128xf32> loc(#loc133)
      %130 = math.exp %129 : tensor<128x128xf32> loc(#loc134)
      %131 = "tt.reduce"(%130) <{axis = 1 : i32}> ({
      ^bb0(%arg35: f32 loc(callsite(#loc1 at #loc135)), %arg36: f32 loc(callsite(#loc1 at #loc135))):
        %160 = arith.addf %arg35, %arg36 : f32 loc(#loc180)
        tt.reduce.return %160 : f32 loc(#loc175)
      }) : (tensor<128x128xf32>) -> tensor<128xf32> loc(#loc175)
      %132 = arith.maxnumf %arg34, %126 : tensor<128xf32> loc(#loc136)
      %133 = arith.subf %arg34, %132 : tensor<128xf32> loc(#loc137)
      %134 = math.exp %133 : tensor<128xf32> loc(#loc138)
      %135 = arith.subf %126, %132 : tensor<128xf32> loc(#loc139)
      %136 = math.exp %135 : tensor<128xf32> loc(#loc140)
      %137 = arith.mulf %134, %arg33 : tensor<128xf32> loc(#loc141)
      %138 = arith.mulf %136, %131 : tensor<128xf32> loc(#loc142)
      %139 = arith.addf %137, %138 : tensor<128xf32> loc(#loc143)
      %140 = arith.divf %136, %139 : tensor<128xf32> loc(#loc144)
      %141 = tt.expand_dims %140 {axis = 1 : i32} : tensor<128xf32> -> tensor<128x1xf32> loc(#loc145)
      %142 = tt.broadcast %141 : tensor<128x1xf32> -> tensor<128x128xf32> loc(#loc146)
      %143 = arith.mulf %130, %142 : tensor<128x128xf32> loc(#loc146)
      %144 = arith.divf %arg33, %139 : tensor<128xf32> loc(#loc147)
      %145 = arith.mulf %144, %134 : tensor<128xf32> loc(#loc148)
      %146 = tt.expand_dims %145 {axis = 1 : i32} : tensor<128xf32> -> tensor<128x1xf32> loc(#loc149)
      %147 = tt.broadcast %146 : tensor<128x1xf32> -> tensor<128x128xf32> loc(#loc150)
      %148 = arith.mulf %arg32, %147 : tensor<128x128xf32> loc(#loc150)
      %149 = tt.splat %arg31 : i32 -> tensor<128x1xi32> loc(#loc151)
      %150 = arith.addi %149, %75 : tensor<128x1xi32> loc(#loc151)
      %151 = arith.cmpi slt, %150, %32 : tensor<128x1xi32> loc(#loc152)
      %152 = tt.broadcast %151 : tensor<128x1xi1> -> tensor<128x128xi1> loc(#loc153)
      %153 = arith.andi %34, %152 : tensor<128x128xi1> loc(#loc153)
      %154 = arith.muli %116, %arg19 : i32 loc(#loc154)
      %155 = tt.splat %154 : i32 -> tensor<128x128xi32> loc(#loc155)
      %156 = tt.addptr %89, %155 : tensor<128x128x!tt.ptr<bf16>>, tensor<128x128xi32> loc(#loc155)
      %157 = tt.load %156, %153, %cst_2 : tensor<128x128x!tt.ptr<bf16>> loc(#loc156)
      %158 = arith.truncf %143 : tensor<128x128xf32> to tensor<128x128xbf16> loc(#loc157)
      %159 = tt.dot %158, %157, %148, inputPrecision = tf32 : tensor<128x128xbf16> * tensor<128x128xbf16> -> tensor<128x128xf32> loc(#loc158)
      scf.yield %159, %139, %132 : tensor<128x128xf32>, tensor<128xf32>, tensor<128xf32> loc(#loc159)
    } {tt.divisibility_arg1 = dense<128> : tensor<1xi32>} loc(#loc123)
    %101 = tt.splat %arg21 : i32 -> tensor<128x1xi32> loc(#loc160)
    %102 = arith.muli %18, %101 : tensor<128x1xi32> loc(#loc160)
    %103 = arith.muli %1, %arg22 : i32 loc(#loc161)
    %104 = tt.splat %103 : i32 -> tensor<128x1xi32> loc(#loc162)
    %105 = arith.addi %102, %104 : tensor<128x1xi32> loc(#loc162)
    %106 = tt.broadcast %105 : tensor<128x1xi32> -> tensor<128x128xi32> loc(#loc163)
    %107 = arith.addi %106, %26 : tensor<128x128xi32> loc(#loc163)
    %108 = tt.splat %arg13 : !tt.ptr<bf16> -> tensor<128x128x!tt.ptr<bf16>> loc(#loc164)
    %109 = tt.addptr %108, %107 : tensor<128x128x!tt.ptr<bf16>>, tensor<128x128xi32> loc(#loc164)
    %110 = arith.truncf %100#0 : tensor<128x128xf32> to tensor<128x128xbf16> loc(#loc165)
    tt.store %109, %110, %36 : tensor<128x128x!tt.ptr<bf16>> loc(#loc165)
    tt.return loc(#loc166)
  } loc(#loc)
} loc(#loc)
#loc2 = loc("/root/miniconda3/lib/python3.12/site-packages/vllm/attention/ops/prefix_prefill.py":70:30)
#loc3 = loc("/root/miniconda3/lib/python3.12/site-packages/vllm/attention/ops/prefix_prefill.py":71:29)
#loc4 = loc("/root/miniconda3/lib/python3.12/site-packages/vllm/attention/ops/prefix_prefill.py":72:28)
#loc5 = loc("/root/miniconda3/lib/python3.12/site-packages/vllm/attention/ops/prefix_prefill.py":74:30)
#loc6 = loc("/root/miniconda3/lib/python3.12/site-packages/vllm/attention/ops/prefix_prefill.py":76:43)
#loc7 = loc("/root/miniconda3/lib/python3.12/site-packages/vllm/attention/ops/prefix_prefill.py":76:32)
#loc8 = loc("/root/miniconda3/lib/python3.12/site-packages/vllm/attention/ops/prefix_prefill.py":77:57)
#loc9 = loc("/root/miniconda3/lib/python3.12/site-packages/vllm/attention/ops/prefix_prefill.py":77:43)
#loc10 = loc("/root/miniconda3/lib/python3.12/site-packages/vllm/attention/ops/prefix_prefill.py":78:68)
#loc11 = loc("/root/miniconda3/lib/python3.12/site-packages/vllm/attention/ops/prefix_prefill.py":78:42)
#loc12 = loc("/root/miniconda3/lib/python3.12/site-packages/vllm/attention/ops/prefix_prefill.py":80:27)
#loc13 = loc("/root/miniconda3/lib/python3.12/site-packages/vllm/attention/ops/prefix_prefill.py":81:44)
#loc14 = loc("/root/miniconda3/lib/python3.12/site-packages/vllm/attention/ops/prefix_prefill.py":88:32)
#loc15 = loc("/root/miniconda3/lib/python3.12/site-packages/vllm/attention/ops/prefix_prefill.py":92:26)
#loc16 = loc("/root/miniconda3/lib/python3.12/site-packages/vllm/attention/ops/prefix_prefill.py":96:33)
#loc17 = loc("/root/miniconda3/lib/python3.12/site-packages/vllm/attention/ops/prefix_prefill.py":99:47)
#loc18 = loc("/root/miniconda3/lib/python3.12/site-packages/vllm/attention/ops/prefix_prefill.py":99:40)
#loc19 = loc("/root/miniconda3/lib/python3.12/site-packages/vllm/attention/ops/prefix_prefill.py":99:59)
#loc20 = loc("/root/miniconda3/lib/python3.12/site-packages/vllm/attention/ops/prefix_prefill.py":100:19)
#loc21 = loc("/root/miniconda3/lib/python3.12/site-packages/vllm/attention/ops/prefix_prefill.py":100:8)
#loc22 = loc("/root/miniconda3/lib/python3.12/site-packages/vllm/attention/ops/prefix_prefill.py":100:38)
#loc23 = loc("/root/miniconda3/lib/python3.12/site-packages/vllm/attention/ops/prefix_prefill.py":100:31)
#loc24 = loc("/root/miniconda3/lib/python3.12/site-packages/vllm/attention/ops/prefix_prefill.py":103:44)
#loc25 = loc("/root/miniconda3/lib/python3.12/site-packages/vllm/attention/ops/prefix_prefill.py":104:8)
#loc26 = loc("/root/miniconda3/lib/python3.12/site-packages/vllm/attention/ops/prefix_prefill.py":104:14)
#loc27 = loc("/root/miniconda3/lib/python3.12/site-packages/vllm/attention/ops/prefix_prefill.py":107:30)
#loc28 = loc("/root/miniconda3/lib/python3.12/site-packages/vllm/attention/ops/prefix_prefill.py":108:35)
#loc29 = loc("/root/miniconda3/lib/python3.12/site-packages/vllm/attention/ops/prefix_prefill.py":108:17)
#loc30 = loc("/root/miniconda3/lib/python3.12/site-packages/vllm/attention/ops/prefix_prefill.py":106:20)
#loc31 = loc("/root/miniconda3/lib/python3.12/site-packages/vllm/attention/ops/prefix_prefill.py":106:16)
#loc32 = loc("/root/miniconda3/lib/python3.12/site-packages/vllm/attention/ops/prefix_prefill.py":123:47)
#loc33 = loc("/root/miniconda3/lib/python3.12/site-packages/vllm/attention/ops/prefix_prefill.py":121:41)
#loc34 = loc("/root/miniconda3/lib/python3.12/site-packages/vllm/attention/ops/prefix_prefill.py":121:29)
#loc35 = loc("/root/miniconda3/lib/python3.12/site-packages/vllm/attention/ops/prefix_prefill.py":122:44)
#loc36 = loc("/root/miniconda3/lib/python3.12/site-packages/vllm/attention/ops/prefix_prefill.py":122:21)
#loc37 = loc("/root/miniconda3/lib/python3.12/site-packages/vllm/attention/ops/prefix_prefill.py":126:31)
#loc38 = loc("/root/miniconda3/lib/python3.12/site-packages/vllm/attention/ops/prefix_prefill.py":127:31)
#loc39 = loc("/root/miniconda3/lib/python3.12/site-packages/vllm/attention/ops/prefix_prefill.py":127:17)
#loc40 = loc("/root/miniconda3/lib/python3.12/site-packages/vllm/attention/ops/prefix_prefill.py":128:25)
#loc41 = loc("/root/miniconda3/lib/python3.12/site-packages/vllm/attention/ops/prefix_prefill.py":128:37)
#loc42 = loc("/root/miniconda3/lib/python3.12/site-packages/vllm/attention/ops/prefix_prefill.py":128:42)
#loc43 = loc("/root/miniconda3/lib/python3.12/site-packages/vllm/attention/ops/prefix_prefill.py":129:48)
#loc44 = loc("/root/miniconda3/lib/python3.12/site-packages/vllm/attention/ops/prefix_prefill.py":130:17)
#loc45 = loc("/root/miniconda3/lib/python3.12/site-packages/vllm/attention/ops/prefix_prefill.py":131:36)
#loc46 = loc("/root/miniconda3/lib/python3.12/site-packages/vllm/attention/ops/prefix_prefill.py":131:17)
#loc47 = loc("/root/miniconda3/lib/python3.12/site-packages/vllm/attention/ops/prefix_prefill.py":134:26)
#loc48 = loc("/root/miniconda3/lib/python3.12/site-packages/vllm/attention/ops/prefix_prefill.py":135:26)
#loc49 = loc("/root/miniconda3/lib/python3.12/site-packages/vllm/attention/ops/prefix_prefill.py":135:12)
#loc50 = loc("/root/miniconda3/lib/python3.12/site-packages/vllm/attention/ops/prefix_prefill.py":136:30)
#loc51 = loc("/root/miniconda3/lib/python3.12/site-packages/vllm/attention/ops/prefix_prefill.py":136:12)
#loc52 = loc("/root/miniconda3/lib/python3.12/site-packages/vllm/attention/ops/prefix_prefill.py":137:42)
#loc53 = loc("/root/miniconda3/lib/python3.12/site-packages/vllm/attention/ops/prefix_prefill.py":139:39)
#loc54 = loc("/root/miniconda3/lib/python3.12/site-packages/vllm/attention/ops/prefix_prefill.py":140:56)
#loc55 = loc("/root/miniconda3/lib/python3.12/site-packages/vllm/attention/ops/prefix_prefill.py":140:26)
#loc56 = loc("/root/miniconda3/lib/python3.12/site-packages/vllm/attention/ops/prefix_prefill.py":138:35)
#loc57 = loc("/root/miniconda3/lib/python3.12/site-packages/vllm/attention/ops/prefix_prefill.py":152:14)
#loc58 = loc("/root/miniconda3/lib/python3.12/site-packages/vllm/attention/ops/prefix_prefill.py":189:56)
#loc59 = loc("/root/miniconda3/lib/python3.12/site-packages/vllm/attention/ops/prefix_prefill.py":187:35)
#loc60 = loc("/root/miniconda3/lib/python3.12/site-packages/vllm/attention/ops/prefix_prefill.py":118:47)
#loc61 = loc("/root/miniconda3/lib/python3.12/site-packages/vllm/attention/ops/prefix_prefill.py":123:37)
#loc62 = loc("/root/miniconda3/lib/python3.12/site-packages/vllm/attention/ops/prefix_prefill.py":121:21)
#loc63 = loc("/root/miniconda3/lib/python3.12/site-packages/vllm/attention/ops/prefix_prefill.py":126:20)
#loc64 = loc("/root/miniconda3/lib/python3.12/site-packages/vllm/attention/ops/prefix_prefill.py":128:17)
#loc65 = loc("/root/miniconda3/lib/python3.12/site-packages/vllm/attention/ops/prefix_prefill.py":129:29)
#loc66 = loc("/root/miniconda3/lib/python3.12/site-packages/vllm/attention/ops/prefix_prefill.py":129:17)
#loc67 = loc("/root/miniconda3/lib/python3.12/site-packages/vllm/attention/ops/prefix_prefill.py":134:15)
#loc68 = loc("/root/miniconda3/lib/python3.12/site-packages/vllm/attention/ops/prefix_prefill.py":137:23)
#loc69 = loc("/root/miniconda3/lib/python3.12/site-packages/vllm/attention/ops/prefix_prefill.py":137:12)
#loc70 = loc("/root/miniconda3/lib/python3.12/site-packages/vllm/attention/ops/prefix_prefill.py":138:25)
#loc71 = loc("/root/miniconda3/lib/python3.12/site-packages/vllm/attention/ops/prefix_prefill.py":149:23)
#loc72 = loc("/root/miniconda3/lib/python3.12/site-packages/vllm/attention/ops/prefix_prefill.py":151:22)
#loc73 = loc("/root/miniconda3/lib/python3.12/site-packages/triton/language/standard.py":184:40)
#loc75 = loc("/root/miniconda3/lib/python3.12/site-packages/triton/language/standard.py":163:27)
#loc76 = loc("/root/miniconda3/lib/python3.12/site-packages/vllm/attention/ops/prefix_prefill.py":171:29)
#loc77 = loc("/root/miniconda3/lib/python3.12/site-packages/vllm/attention/ops/prefix_prefill.py":171:24)
#loc78 = loc("/root/miniconda3/lib/python3.12/site-packages/vllm/attention/ops/prefix_prefill.py":171:19)
#loc79 = loc("/root/miniconda3/lib/python3.12/site-packages/triton/language/standard.py":267:36)
#loc81 = loc("/root/miniconda3/lib/python3.12/site-packages/triton/language/standard.py":256:15)
#loc82 = loc("/root/miniconda3/lib/python3.12/site-packages/vllm/attention/ops/prefix_prefill.py":174:34)
#loc83 = loc("/root/miniconda3/lib/python3.12/site-packages/vllm/attention/ops/prefix_prefill.py":175:29)
#loc84 = loc("/root/miniconda3/lib/python3.12/site-packages/vllm/attention/ops/prefix_prefill.py":175:23)
#loc85 = loc("/root/miniconda3/lib/python3.12/site-packages/vllm/attention/ops/prefix_prefill.py":176:29)
#loc86 = loc("/root/miniconda3/lib/python3.12/site-packages/vllm/attention/ops/prefix_prefill.py":176:22)
#loc87 = loc("/root/miniconda3/lib/python3.12/site-packages/vllm/attention/ops/prefix_prefill.py":177:26)
#loc88 = loc("/root/miniconda3/lib/python3.12/site-packages/vllm/attention/ops/prefix_prefill.py":177:39)
#loc89 = loc("/root/miniconda3/lib/python3.12/site-packages/vllm/attention/ops/prefix_prefill.py":177:32)
#loc90 = loc("/root/miniconda3/lib/python3.12/site-packages/vllm/attention/ops/prefix_prefill.py":181:25)
#loc91 = loc("/root/miniconda3/lib/python3.12/site-packages/vllm/attention/ops/prefix_prefill.py":182:24)
#loc92 = loc("/root/miniconda3/lib/python3.12/site-packages/vllm/attention/ops/prefix_prefill.py":182:16)
#loc93 = loc("/root/miniconda3/lib/python3.12/site-packages/vllm/attention/ops/prefix_prefill.py":184:26)
#loc94 = loc("/root/miniconda3/lib/python3.12/site-packages/vllm/attention/ops/prefix_prefill.py":184:36)
#loc95 = loc("/root/miniconda3/lib/python3.12/site-packages/vllm/attention/ops/prefix_prefill.py":185:30)
#loc96 = loc("/root/miniconda3/lib/python3.12/site-packages/vllm/attention/ops/prefix_prefill.py":185:20)
#loc97 = loc("/root/miniconda3/lib/python3.12/site-packages/vllm/attention/ops/prefix_prefill.py":189:26)
#loc98 = loc("/root/miniconda3/lib/python3.12/site-packages/vllm/attention/ops/prefix_prefill.py":187:25)
#loc99 = loc("/root/miniconda3/lib/python3.12/site-packages/vllm/attention/ops/prefix_prefill.py":195:17)
#loc100 = loc("/root/miniconda3/lib/python3.12/site-packages/vllm/attention/ops/prefix_prefill.py":197:24)
#loc101 = loc("/root/miniconda3/lib/python3.12/site-packages/vllm/attention/ops/prefix_prefill.py":200:8)
#loc102 = loc("/root/miniconda3/lib/python3.12/site-packages/vllm/attention/ops/prefix_prefill.py":202:31)
#loc103 = loc("/root/miniconda3/lib/python3.12/site-packages/vllm/attention/ops/prefix_prefill.py":202:58)
#loc104 = loc("/root/miniconda3/lib/python3.12/site-packages/vllm/attention/ops/prefix_prefill.py":202:44)
#loc105 = loc("/root/miniconda3/lib/python3.12/site-packages/vllm/attention/ops/prefix_prefill.py":203:20)
#loc106 = loc("/root/miniconda3/lib/python3.12/site-packages/vllm/attention/ops/prefix_prefill.py":203:13)
#loc107 = loc("/root/miniconda3/lib/python3.12/site-packages/vllm/attention/ops/prefix_prefill.py":204:31)
#loc108 = loc("/root/miniconda3/lib/python3.12/site-packages/vllm/attention/ops/prefix_prefill.py":204:58)
#loc109 = loc("/root/miniconda3/lib/python3.12/site-packages/vllm/attention/ops/prefix_prefill.py":204:44)
#loc110 = loc("/root/miniconda3/lib/python3.12/site-packages/vllm/attention/ops/prefix_prefill.py":205:13)
#loc111 = loc("/root/miniconda3/lib/python3.12/site-packages/vllm/attention/ops/prefix_prefill.py":206:17)
#loc112 = loc("/root/miniconda3/lib/python3.12/site-packages/vllm/attention/ops/prefix_prefill.py":207:17)
#loc113 = loc("/root/miniconda3/lib/python3.12/site-packages/vllm/attention/ops/prefix_prefill.py":210:44)
#loc114 = loc("/root/miniconda3/lib/python3.12/site-packages/vllm/attention/ops/prefix_prefill.py":210:68)
#loc115 = loc("/root/miniconda3/lib/python3.12/site-packages/vllm/attention/ops/prefix_prefill.py":213:52)
#loc116 = loc("/root/miniconda3/lib/python3.12/site-packages/vllm/attention/ops/prefix_prefill.py":213:42)
#loc117 = loc("/root/miniconda3/lib/python3.12/site-packages/vllm/attention/ops/prefix_prefill.py":213:57)
#loc118 = loc("/root/miniconda3/lib/python3.12/site-packages/vllm/attention/ops/prefix_prefill.py":218:34)
#loc119 = loc("/root/miniconda3/lib/python3.12/site-packages/vllm/attention/ops/prefix_prefill.py":219:51)
#loc120 = loc("/root/miniconda3/lib/python3.12/site-packages/vllm/attention/ops/prefix_prefill.py":219:21)
#loc121 = loc("/root/miniconda3/lib/python3.12/site-packages/vllm/attention/ops/prefix_prefill.py":224:14)
#loc122 = loc("/root/miniconda3/lib/python3.12/site-packages/vllm/attention/ops/prefix_prefill.py":226:42)
#loc123 = loc("/root/miniconda3/lib/python3.12/site-packages/vllm/attention/ops/prefix_prefill.py":213:66)
#loc124 = loc("/root/miniconda3/lib/python3.12/site-packages/vllm/attention/ops/prefix_prefill.py":219:32)
#loc125 = loc("/root/miniconda3/lib/python3.12/site-packages/vllm/attention/ops/prefix_prefill.py":217:52)
#loc126 = loc("/root/miniconda3/lib/python3.12/site-packages/vllm/attention/ops/prefix_prefill.py":217:63)
#loc127 = loc("/root/miniconda3/lib/python3.12/site-packages/vllm/attention/ops/prefix_prefill.py":217:20)
#loc128 = loc("/root/miniconda3/lib/python3.12/site-packages/vllm/attention/ops/prefix_prefill.py":216:20)
#loc129 = loc("/root/miniconda3/lib/python3.12/site-packages/vllm/attention/ops/prefix_prefill.py":223:23)
#loc130 = loc("/root/miniconda3/lib/python3.12/site-packages/vllm/attention/ops/prefix_prefill.py":227:22)
#loc132 = loc("/root/miniconda3/lib/python3.12/site-packages/vllm/attention/ops/prefix_prefill.py":235:29)
#loc133 = loc("/root/miniconda3/lib/python3.12/site-packages/vllm/attention/ops/prefix_prefill.py":235:24)
#loc134 = loc("/root/miniconda3/lib/python3.12/site-packages/vllm/attention/ops/prefix_prefill.py":235:19)
#loc136 = loc("/root/miniconda3/lib/python3.12/site-packages/vllm/attention/ops/prefix_prefill.py":238:34)
#loc137 = loc("/root/miniconda3/lib/python3.12/site-packages/vllm/attention/ops/prefix_prefill.py":239:29)
#loc138 = loc("/root/miniconda3/lib/python3.12/site-packages/vllm/attention/ops/prefix_prefill.py":239:23)
#loc139 = loc("/root/miniconda3/lib/python3.12/site-packages/vllm/attention/ops/prefix_prefill.py":240:29)
#loc140 = loc("/root/miniconda3/lib/python3.12/site-packages/vllm/attention/ops/prefix_prefill.py":240:22)
#loc141 = loc("/root/miniconda3/lib/python3.12/site-packages/vllm/attention/ops/prefix_prefill.py":241:26)
#loc142 = loc("/root/miniconda3/lib/python3.12/site-packages/vllm/attention/ops/prefix_prefill.py":241:39)
#loc143 = loc("/root/miniconda3/lib/python3.12/site-packages/vllm/attention/ops/prefix_prefill.py":241:32)
#loc144 = loc("/root/miniconda3/lib/python3.12/site-packages/vllm/attention/ops/prefix_prefill.py":244:25)
#loc145 = loc("/root/miniconda3/lib/python3.12/site-packages/vllm/attention/ops/prefix_prefill.py":245:24)
#loc146 = loc("/root/miniconda3/lib/python3.12/site-packages/vllm/attention/ops/prefix_prefill.py":245:16)
#loc147 = loc("/root/miniconda3/lib/python3.12/site-packages/vllm/attention/ops/prefix_prefill.py":247:26)
#loc148 = loc("/root/miniconda3/lib/python3.12/site-packages/vllm/attention/ops/prefix_prefill.py":247:36)
#loc149 = loc("/root/miniconda3/lib/python3.12/site-packages/vllm/attention/ops/prefix_prefill.py":248:30)
#loc150 = loc("/root/miniconda3/lib/python3.12/site-packages/vllm/attention/ops/prefix_prefill.py":248:20)
#loc151 = loc("/root/miniconda3/lib/python3.12/site-packages/vllm/attention/ops/prefix_prefill.py":253:32)
#loc152 = loc("/root/miniconda3/lib/python3.12/site-packages/vllm/attention/ops/prefix_prefill.py":253:51)
#loc153 = loc("/root/miniconda3/lib/python3.12/site-packages/vllm/attention/ops/prefix_prefill.py":253:21)
#loc154 = loc("/root/miniconda3/lib/python3.12/site-packages/vllm/attention/ops/prefix_prefill.py":251:63)
#loc155 = loc("/root/miniconda3/lib/python3.12/site-packages/vllm/attention/ops/prefix_prefill.py":251:20)
#loc156 = loc("/root/miniconda3/lib/python3.12/site-packages/vllm/attention/ops/prefix_prefill.py":250:20)
#loc157 = loc("/root/miniconda3/lib/python3.12/site-packages/vllm/attention/ops/prefix_prefill.py":255:17)
#loc158 = loc("/root/miniconda3/lib/python3.12/site-packages/vllm/attention/ops/prefix_prefill.py":257:24)
#loc159 = loc("/root/miniconda3/lib/python3.12/site-packages/vllm/attention/ops/prefix_prefill.py":260:8)
#loc160 = loc("/root/miniconda3/lib/python3.12/site-packages/vllm/attention/ops/prefix_prefill.py":263:59)
#loc161 = loc("/root/miniconda3/lib/python3.12/site-packages/vllm/attention/ops/prefix_prefill.py":264:19)
#loc162 = loc("/root/miniconda3/lib/python3.12/site-packages/vllm/attention/ops/prefix_prefill.py":264:8)
#loc163 = loc("/root/miniconda3/lib/python3.12/site-packages/vllm/attention/ops/prefix_prefill.py":264:31)
#loc164 = loc("/root/miniconda3/lib/python3.12/site-packages/vllm/attention/ops/prefix_prefill.py":265:21)
#loc165 = loc("/root/miniconda3/lib/python3.12/site-packages/vllm/attention/ops/prefix_prefill.py":267:13)
#loc166 = loc("/root/miniconda3/lib/python3.12/site-packages/vllm/attention/ops/prefix_prefill.py":270:4)
#loc167 = loc(callsite(#loc73 at #loc74))
#loc169 = loc(callsite(#loc75 at #loc73))
#loc170 = loc(callsite(#loc79 at #loc80))
#loc172 = loc(callsite(#loc81 at #loc79))
#loc173 = loc(callsite(#loc73 at #loc131))
#loc175 = loc(callsite(#loc79 at #loc135))
#loc177 = loc(callsite(#loc169 at #loc74))
#loc178 = loc(callsite(#loc172 at #loc80))
#loc179 = loc(callsite(#loc169 at #loc131))
#loc180 = loc(callsite(#loc172 at #loc135))
